notebooks/ckpt_rotfoNET_AE_mse_AaBb_19_3000.pth (torch_old, 58967 bytes, 12 tensors)

conv1.weight f4 [6, 3, 5, 5]
00000000: 8532 ddbd bb66 14bf 94e2 9d3e a26b 01be
00000010: 6624 86bd 011f ae3d 5fc1 35be ac20 c73e
00000020: 5085 b13d 7f29 eb3d 9eaa b6bc fbac c4be
00000030: 99ad 453e 1237 42be 4964 5dbd cb65 af3d
00000040: 6049 8d3e fb20 8c3e f097 9f3e 46af 333e
00000050: 40ad 21be 0ca3 b0be 6d69 5fbe 62fe 7fbe
00000060: b789 6abe 39f3 333d 6ddb f3be 92ce d03e
00000070: 7401 a5be 620c 093c 96ca 893d 2df3 41be
00000080: 1dae b73e f122 223d 6cbd e7bc 1d4e a03d
00000090: 093d a9be 0a7d 7e3e 7af0 84be 946e b9b9
000000a0: cb5c 203e 9d35 263e a726 953e 3a65 863e
000000b0: 031f 173e c6b4 22be a7e3 72be f3d7 44be
000000c0: a649 aabe f598 16be 6b18 843d 78a5 10bf
000000d0: 5993 173f ccdb dfbe 0f7c 303e ba94 253e
000000e0: 8df9 9cbe 6ef5 c63e aeff 47be 5a75 763e
000000f0: 65cd 1d3d dd9e f4be 69b2 bd3e 0de9 aebe
00000100: 02e6 3f3e 3f1e 753e 69c3 d23d 5751 d03e
00000110: 2548 343e 0437 c93e 49f0 03be 87f9 fcbe
00000120: 5cd9 7ebd 1bc1 08bf b8e8 34be e928 b43d
00000130: 6390 2c3d db71 6a3e e1da bf3d 5b40 5e3e
00000140: 86c8 453d 1249 dcbe fe0c ab3d a9db f3be
00000150: 257a f33d a716 853e 53f4 33bd 4236 d33e
00000160: 5b71 613e 2993 a93e 6de8 ce3d 35e1 cbbe
00000170: 7c82 b93d 3670 b1be 32e0 033e e61d 663d
00000180: 4599 853c 55f1 453e 7d2d 7d3d 3f2f 1e3e
00000190: b308 163d e3e8 0b3d 9a9b bf3c 1bb8 9dbc
000001a0: 9903 9f3d 812d 7c3d e0af 13be 96b8 d43d
000001b0: be84 19be 0046 7fbd ccd2 c5b9 ea97 a33d
000001c0: 3636 cc3d 2558 2e3e 1bcb f13d 6d6a bb3b
000001d0: 6c84 e8bd 9886 d5bc 39c2 4ebe 5ca4 833c
000001e0: 355a 933d ef84 d03c 4cd4 463d 657d 173d
000001f0: cc3f c63d e6a5 a13b 912d 77bc ff88 a6bd
00000200: ffe1 aebc 8086 f5bd 9cdf aa3c b3cf 233c
00000210: cb9f 103a 837c a6bd 0a5d 603d 9dcb 52bd
00000220: b884 cd3d d4e8 40be 5688 103e 403f 3ebc
00000230: f272 22bd 59a1 16be 2803 a5bd 624f d1bd
00000240: 6aa8 42bd 13c7 2cbc 8dc7 f73d 1a94 3abc
00000250: 1987 bd3d 46e5 a7bd 93dc 493d 9dce 43bb
00000260: f1d0 e3bc 8741 b03d 6af5 2d3d dc2f bebe
00000270: d61e bebe f7ee b3be 5753 85be 79e6 95be
00000280: c3a4 c83e 1e02 a63e 5cdd ba3e 3b4a a83e
00000290: 22fb 973e bd9f 33be af3a 41be 3fb5 63be
000002a0: 5d2e 0f3d 92e8 07be e817 713d f72b 123e
000002b0: 51df 023e 858d 96bc 7def 05be 2b83 213d
000002c0: acea 883d 8dfe cb3d 4dce c23c 9a15 dabb
000002d0: d7bd a4be 6897 fbbe 0210 b7be 7775 4fbe
000002e0: 7a8a babe 61e4 bf3e 3fbf 903e 8e70 c63e
000002f0: 0300 e23e 7abe 6c3e 1886 6bbe 4602 55be
00000300: ea3d f3bd 00ef 1e3d 89fb 46be 89d5 403e
00000310: 7774 113e 075d 523d f060 a93d 19c0 9bbb
00000320: bf71 6d3c 4d7e 543d d8df 853d d920 ec3d
00000330: 0a30 343d 4a62 05bf c554 24bf 3139 14bf
00000340: 8a84 a6be 2cee f8be 0ad7 0e3f baed d33e
00000350: 03fb 023f 0d0f c03e 25c5 8f3e 6b26 89be
00000360: 9b02 9bbe c65a 5bbe ce9f 8bbd 8f1f b2be
00000370: 5832 f73d f0b8 a93e 94b9 b93e 817b a03e
00000380: c991 a73d 08ea d641 b858 a341 328e 8e41
00000390: 6fe5 a941 9bb8 d841 d4f7 ac41 7178 6441
000003a0: b8fc 2b41 0530 7241 81e8 9f41 099f a141
000003b0: cb2d 3841 447f 1e41 5d2c 4741 2971 8a41
000003c0: d2d6 b441 d4cf 7841 fe39 4641 388b 8141
000003d0: ec31 af41 b608 e541 ad0a ba41 9146 a341
000003e0: 7286 c041 af9a ec41 ca7d d141 73bd a341
000003f0: de87 8c41 03b7 a441 c762 d141 43a4 a941
-0.108006515 -0.57969254 0.30836928 -0.12638715 -0.06549911 0.08502007 -0.17749546 0.38892114
0.086680055 0.11482524 -0.022298153 -0.38413224 0.19304504 -0.1896632 -0.054050718 0.08564337
0.27595043 0.27368912 0.31170607 0.1754733 -0.15788746 -0.34499395 -0.2181756 -0.24999383
-0.22904097 0.043933127 -0.47628346 0.407826 -0.3222767 0.008364769 0.06728093 -0.1894042
0.35875025 0.039584104 -0.028288566 0.07827399 -0.3305438 0.24852386 -0.2596472 -0.00035368337
0.15660398 0.1623139 0.29131052 0.26249105 0.14757924 -0.15889272 -0.23719655 -0.19223003
-0.33259314 -0.14706786 0.0644997 -0.56502485 0.5920921 -0.4372238 0.17234825 0.16170016
-0.30659142 0.38859123 -0.19531128 0.24068204 0.038525958 -0.47777453 0.3705018 -0.3416218
0.18740085 0.23937319 0.10291178 0.40687057 0.17605646 0.39299786 -0.1288463 -0.49409124
-0.06221901 -0.53419656 -0.176669 0.087968655 0.042129885 0.22894995 0.0936792 0.21704237
0.048286937 -0.43024498 0.083520874 -0.47628525 0.118885316 0.25993845 -0.043934178 0.41252333
0.22015898 0.33120087 0.101029254 -0.39820257 0.09058091 -0.34655923 0.12878492 0.056180857
0.016308436 0.19330342 0.06181096 0.1544771 0.03662939 0.034157645 0.023389626 -0.019252827
0.07764358 0.061566833 -0.1442256 0.103867695 -0.14992043 -0.062322617 -0.00037731824 0.0798796
0.099712774 0.17025812 0.118063174 0.005719474 -0.113533825 -0.026065156 -0.20191278 0.016069584
0.0719494 0.025454013 0.048542306 0.03698482 0.09680137 0.0049331067 -0.0150865475 -0.08131599
-0.021347998 -0.119885445 0.020858578 0.00999825 0.0005516975 -0.081292175 0.05477623 -0.051463712
0.1003508 -0.18838817 0.14114508 -0.01161176 -0.0396604 -0.14709987 -0.08057243 -0.10220219
-0.047523893 -0.01054551 0.12098608 -0.011387849 0.092542835 -0.08198027 0.04928262 -0.002987779
-0.027809592 0.08606248 0.042470373 -0.3714589 -0.371329 -0.35143253 -0.26040146 -0.292774
0.39188203 0.3242349 0.3649701 0.32869133 0.29683787 -0.17541404 -0.18870042 -0.22237109
0.034956325 -0.13272312 0.05886069 0.14274584 0.12780501 -0.018378029 -0.13079639 0.039431732
0.06685385 0.09960661 0.023780013 -0.006655407 -0.32176086 -0.4913895 -0.357544 -0.20259653
-0.36433774 0.37478927 0.2827091 0.38757747 0.44140634 0.23119536 -0.23000371 -0.20801648
-0.118770435 0.038802147 -0.1943189 0.18831457 0.14204584 0.05135825 0.082704425 -0.0047531244
0.014492451 0.051878262 0.065368354 0.11529703 0.043991126 -0.521031 -0.6419185 -0.5789977
-0.32522994 -0.4861921 0.55796874 0.41392308 0.51164263 0.37511483 0.28080097 -0.26787123
-0.30275425 -0.21421346 -0.0681759 -0.34789702 0.12070149 0.3314891 0.36274397 0.31344226
0.08182103 26.864273 20.41832 17.819431 21.237028 27.09014 21.62101 14.279405
10.749199 15.1367235 19.988527 20.202654 11.51118 9.906071 12.448331 17.305254
22.604893 15.550739 12.389158 16.192978 21.899376 28.629253 23.255213 20.409456
24.065647 29.57553 26.18642 20.467505 17.566341 20.589361 26.173231 21.205206

conv1.bias f4 [6]
00000000: f8bd e739 dc7d 81ba a072 5aba 6d77 16bb
00000010: fcc6 78b9 31f3 fdba
0.0004420129 -0.0009879428 -0.00083331205 -0.0022959367 -0.0002372525 -0.0019374845

unconv1.weight f4 [6, 3, 5, 5]
00000000: 36bc 16bd 8d03 a1bd afeb adbd 77f4 aabd
00000010: c7f4 35bd 9768 9bbd 43b3 1abe ea62 1ebe
00000020: c722 1fbe cdf8 b0bd c4ec 99bd 6a59 1bbe
00000030: bec5 1fbe 27bd 1bbe fb1f aabd c34f a4bd
00000040: 0897 23be 7057 1ebe c150 20be 9965 b8bd
00000050: b4a9 2cbd 1190 a8bd d508 98bd 1965 a0bd
00000060: 146c 3bbd ce96 a5bc 28e4 4cbd f217 6dbd
00000070: cbbf 56bd 8245 f0bc 0e02 37bd 979c c6bd
00000080: f335 d1bd b751 c5bd 94c2 61bd 03c3 38bd
00000090: 7f4d cbbd fef0 d2bd e140 c3bd a46b 5cbd
000000a0: 66f6 40bd b564 d0bd fbce c9bd 5c93 c2bd
000000b0: a430 69bd 0fe9 c5bc 5c73 47bd 9fac 2cbd
000000c0: 8e95 2dbd 5d43 dbbc 33d0 a5bb af98 b6bc
000000d0: 63bf f2bc 9774 b1bc 7681 5dbc d2eb 8fbc
000000e0: a34c 42bd f4ac 52bd 0e05 2bbd 9825 dbbc
000000f0: 91ed 94bc 837b 4cbd c6d0 51bd 8eb6 2dbd
00000100: 9927 dbbc fad4 97bc 6f19 4abd 9dc4 3cbd
00000110: e250 25bd aae3 e5bc fd81 0ebc 733b a1bc
00000120: caa7 61bc 64e0 47bc ab9c 2bbc 31f5 dbbc
00000130: ea1c 26bd 7c22 09bd f9be 03bd 8e8a 90bc
00000140: f16b 26bd fe0b 80bd bfa3 4dbd b56d 2fbd
00000150: d206 a0bc 84c4 15bd e643 5ebd efab 23bd
00000160: 3448 ddbc 5cb5 10bc be0c 1abd 41be 68bd
00000170: 2194 3ebd de36 17bd 9be6 82bc 253c cbbc
00000180: b6a7 11bd d9fb f4bc 851d cdbc 3b4b 3bbc
00000190: 69d8 40bc 8e4e 8dbc 857c 52bc 4e04 33bc
000001a0: a353 92bb 4b22 87bc 9b8d c9bc e4a0 83bc
000001b0: 8742 0dbc 97b6 c33a 120b 7abc 665c a3bc
000001c0: bf61 1dbc bb9a 1a3b 6ee6 0b3c 0cf6 7bbc
000001d0: f2f1 b2bc fc92 73bc 323b a9bb 074d 4f3b
000001e0: 8ffc 24bc 63ef 4dbc 36e9 15bc 292a 70bb
000001f0: 3f93 b53a ef28 1dbb dc52 32bb 07b8 f0b8
00000200: 294a db3a f9b7 3c3b 4edd abba ac0a 35ba
00000210: a746 9c3b 9ac6 3b3c 8057 553c 60ce 12bb
00000220: fdad 053a 290f fa3b 8ca3 953c e513 8d3c
00000230: 171d f6ba 3165 53ba 81b7 883b 11e2 5b3c
00000240: 4ae3 5f3c 91e8 f6ba 014e ac39 4391 353b
00000250: 4c39 043c 9cb8 fb3b 2b49 f53b 9ead 253c
00000260: d609 2c3c 4622 533c c3b7 7e3b 2e47 8c3c
00000270: 8f25 e03c 370f fd3c b70c 0d3d 0814 3a3c
00000280: e28d 803c 2186 d13c 4d40 0e3d ab22 1f3d
00000290: d0e7 513c cd6d 1b3c a742 a43c ef69 103d
000002a0: 2d8e 1f3d 2172 1b3c 8678 033c 59c1 793c
000002b0: 879d ca3c 456c e03c e480 9a3b 3714 e43c
000002c0: 03eb 3d3d 2753 3a3d d847 4c3d 4356 c53c
000002d0: 5553 593d 1d18 b83d 85d7 be3d 61c7 c93d
000002e0: 0160 3d3d 1154 583d 045e ba3d 0600 cf3d
000002f0: f016 d53d 320d 443d 40c6 463d e73c b43d
00000300: 5633 d13d 6139 da3d 0cbe 3c3d 743a ee3c
00000310: 0d94 553d ed88 743d 73dc 823d 6fed bc3c
00000320: 158a 123d 4026 823d 4b99 7c3d 0ea6 8e3d
00000330: 9ca0 103d f289 8e3d 14cd fc3d a4e1 003e
00000340: fc08 0b3e 01fb 883d 1b44 913d 763f 023e
00000350: 456b 0c3e 8871 103e 2c42 8b3d 9254 8f3d
00000360: 20cd 043e 6c11 103e 1bec 163e ed39 8c3d
00000370: e6c0 273d 0302 9c3d cabb a53d 959c b13d
00000380: eadf 0f3d 69f6 923c 572c d43c 5cfe a43c
00000390: e5b7 ca3c 29be 973c 4b7a e33c 60d3 1f3d
000003a0: 1378 ef3c 5d83 163d eced d73c 8ac5 c03c
000003b0: 8bce 0c3d f94d dc3c 1d52 f43c 8f14 a63c
000003c0: ed51 db3c 522e 253d cb5c 063d 8aaf 183d
000003d0: 3675 d63c 1825 a63c 2a95 e63c 2437 b13c
000003e0: 2494 d63c a774 a53c b8d4 793c 6e02 b23c
000003f0: 6dc8 8a3c 7c74 b03c 54ee 833c 427e bf3c
-0.036800586 -0.078620054 -0.08492219 -0.08347409 -0.04442289 -0.07588308 -0.15107445 -0.1546742
-0.1554061 -0.08641205 -0.075158626 -0.15170828 -0.15602776 -0.15208875 -0.08306881 -0.08023026
-0.15975583 -0.15463042 -0.15655805 -0.09003753 -0.04215403 -0.082306035 -0.074235596 -0.07831783
-0.04575737 -0.02021351 -0.050022274 -0.057884164 -0.052429 -0.029330019 -0.044679694 -0.09697836
-0.10215368 -0.096347265 -0.055117205 -0.045107853 -0.099268906 -0.10299872 -0.09533859 -0.05381359
-0.047109984 -0.10175458 -0.098539315 -0.09500763 -0.056931153 -0.024158983 -0.048694 -0.04215681
-0.042378955 -0.02676552 -0.0050602197 -0.022289602 -0.029632276 -0.02166204 -0.013519635 -0.017568503
-0.047436368 -0.051434472 -0.041752867 -0.026751325 -0.018179687 -0.049922477 -0.051224492 -0.042410426
-0.02675228 -0.018534172 -0.04934066 -0.046085943 -0.04036034 -0.02806266 -0.008697984 -0.019681668
-0.013772914 -0.012199495 -0.010474364 -0.026850315 -0.04055492 -0.033480152 -0.032164548 -0.017644193
-0.040630285 -0.06252287 -0.05020499 -0.042829234 -0.019534502 -0.036564365 -0.05426397 -0.03995889
-0.027011968 -0.008832302 -0.03760981 -0.056822065 -0.046527985 -0.03691756 -0.015979102 -0.024808953
-0.035560332 -0.029905247 -0.02503849 -0.011431511 -0.011770346 -0.017249372 -0.012847071 -0.010926319
-0.0044655367 -0.016495844 -0.024603656 -0.01606793 -0.008621818 0.0014931735 -0.015261428 -0.01994152
-0.009605824 0.0023590762 0.008538825 -0.015378486 -0.021843884 -0.014866587 -0.0051645273 0.0031631605
-0.01006998 -0.012569281 -0.00914984 -0.0036646223 0.0013853087 -0.0023980697 -0.0027210033 -0.000114783696
0.0016730475 0.002879618 -0.0013112219 -0.0006906192 0.0047691646 0.0114609245 0.01302135 -0.002240084
0.00050994736 0.0076312018 0.018266462 0.0172214 -0.001877698 -0.000806409 0.004172266 0.013420598
0.01366503 -0.0018837621 0.00032864514 0.002770499 0.008070301 0.0076819193 0.007485529 0.010112194
0.010500392 0.012886589 0.0038866855 0.017123785 0.02736166 0.030891044 0.034435954 0.011357315
0.015692655 0.025576653 0.03472929 0.03885142 0.012811616 0.009486628 0.020051314 0.035257276
0.03895395 0.00948766 0.0080243405 0.015243852 0.024733318 0.027395377 0.004715072 0.02784167
0.046366703 0.045489457 0.049873203 0.024088984 0.053057987 0.08988974 0.09318451 0.09852482
0.046234135 0.052814547 0.09099963 0.10107426 0.104047656 0.047864147 0.04852891 0.08800679
0.1021487 0.106554754 0.04607968 0.029080607 0.052143145 0.059700895 0.063897036 0.023062436
0.035776217 0.06354952 0.06166963 0.06965266 0.03530942 0.06959905 0.12343803 0.12586075
0.13577646 0.066885 0.07093068 0.12719521 0.13712795 0.14105809 0.06799731 0.069985524
0.12968874 0.14069146 0.14738505 0.06846986 0.040955447 0.07617571 0.080924585 0.08672444
0.03512565 0.017939763 0.02590005 0.02014082 0.02474589 0.018523293 0.027768275 0.039019942
0.02923206 0.03674637 0.026358567 0.023531694 0.034376662 0.026892649 0.02982431 0.020273475
0.026772464 0.040327378 0.032803338 0.037276782 0.026178937 0.02028136 0.028147299 0.021632738
0.026193686 0.020197226 0.01524847 0.021729674 0.016941274 0.02153992 0.016104855 0.023375634

unconv1.bias f4 [3]
00000000: 6641 e93e 1246 e33e 62b8 d83e
0.45557708 0.44389397 0.42328173

encoder1.1.weight f4 [12, 6, 5, 5]
00000000: fd54 863d fc61 6abe 0271 66be 28d9 313d
00000010: 7873 8c3d a705 9ebd 2a59 acbe d9fe 1ebf
00000020: fc76 bd3d 1fb0 fc3d d0cf 1d3e 586a 71be
00000030: 3b36 63bf 5078 183d 92cc 613e cdf7 b63d
00000040: a735 163d cfad 7b3e 2d8c 9a3e 2295 843e
00000050: 9aed c83e f3c9 c73e 2060 af3e d936 c13e
00000060: 02a8 3e3e ae83 9cbd cbe5 c2bd 9f30 e23d
00000070: de39 92be 2abc 52be f360 0abe 64b5 1a3b
00000080: cdd2 163e a325 dfbe 7749 15be 4533 fc3e
00000090: 616b 713f 4b11 103f 0d20 94be c03c 0bbe
000000a0: 14bc 083f 62f6 3f3f 5f07 073f 5d46 3e3d
000000b0: 93ee c7bd a759 033e 69df 833e 2f31 a33e
000000c0: 880e c73d 33a1 46bd 651d f23e ca52 0f3f
000000d0: b302 7a3f 76f1 143f 5115 58bd 8c14 093e
000000e0: 15fb e73e a79c 103f 52a6 07bf f5a0 71be
000000f0: 962c e73b 6645 063f 23f4 363f 21e1 01bf
00000100: 5dc5 b0be a9ec 1dbd 8798 1dbe 487e 94be
00000110: 870d adbe 666d 72be dce3 413d 6c9b 8a3d
00000120: c1ca c4bc e6e2 a2bd 3a29 55bd 134b 953a
00000130: a20c 353c 3c3c fd3b 4749 2ebd 8ffd 633c
00000140: 198f 72bd 539d 823d bbf3 133e eda2 b8bd
00000150: bcc1 e3bc 5561 ffbc 11be 373e a154 893e
00000160: 926c 91bd d906 d83c cc5e c73c a0d0 003e
00000170: 9d7c 953d 2851 50bd df1b 42bc 12a9 76bb
00000180: e04e c8bc 1eb3 ea3c be53 2fbd 0e6f deb9
00000190: a7ce 36be af16 d0be 4848 17bf f113 ac3d
000001a0: aa90 993e d7e9 483e 465d 36bd 44fa 983d
000001b0: 1f68 903e 45fc 433e 18fd 843e 41f7 a13d
000001c0: fdd4 ab3e b81b 42be c864 f53d 89d8 d8be
000001d0: 518b 1bbf d667 82be 6b22 14be 7a96 173e
000001e0: 0583 68bd d224 acbc 2c77 9ebc 996d 1f3d
000001f0: 4d61 073e 58c0 20be c00c 14be acb7 14be
00000200: bcb0 80bc 2cec 633e 8114 413e a9f7 a63e
00000210: 1f88 2c3e 2771 e23e 18a7 f73e 1463 9c3c
00000220: 2ceb c23e 7842 0c3d aeda e13d 5dd8 893e
00000230: 40a1 11bd 23c1 823d d64f 463e 25e9 aa3e
00000240: 7961 a53e 4a05 61bd b75e 73bc 09af 873d
00000250: c8ad 513e 3626 133e 92ad 11be 06f5 f7bb
00000260: 74ab 0d3d 13f6 343d b1f4 4b3e 93af 38bd
00000270: 041d 60bd 0108 bdbd eb6f 0a3e f6ce 733e
00000280: ca6c 6cbf 9e50 6b3e 7142 1a3e 92e8 c03e
00000290: 564a 41bd 71cd cabe 3aed ee3e 452a af3e
000002a0: 2c1a ca3e 9de5 a3be 845b c3bd ee1c 7abf
000002b0: a4a9 eabf 1d11 e6bc 826d 1ebf 4f50 833e
000002c0: 0b22 ef3d 4f92 08be 39b2 96be 6ff9 313d
000002d0: d3bf 533e ab1a 083e c782 11bd 35b4 c3bd
000002e0: 93a5 ff3c c3e9 b33d 5c5f db3d cc54 2cbf
000002f0: 36d3 22bf f620 213d 2965 15bd a48e 9a3c
00000300: d6e6 cabe b54b 2bbe 127e 8f3d a1ff 3fbd
00000310: cba8 6ebe ea6d 75be 73f9 c4bc 0cd6 e2bd
00000320: 9117 e1bd 0e44 95be 9cb0 f1bd c4a9 6dbf
00000330: 40e3 0cbf 175f 303e 46fd c5bd 0c85 be3d
00000340: b436 a2bd b170 65be 910b 913e b843 5d3e
00000350: 48a4 01bf cd12 75be 54a4 6f3e c857 19be
00000360: c7cb ef3c 4111 103e 85b4 7e3d 5887 5e3d
00000370: 788f 40be 80ee 7e3d 1018 313e 7b72 413e
00000380: f188 76bc e2db 053e f6e1 9f3b c094 453e
00000390: ac02 d83d 1d3f 0b3d 63ed 1a3d 0da4 0b3d
000003a0: 739b 693d 9d45 7a3d 9224 a33c 5115 503d
000003b0: 875e f6bc 652b 1ebe 06e5 69bd f284 c0bd
000003c0: ad1c 96bd 166c d63c 2abc 213d 1ad6 a03d
000003d0: 4ed3 60bd b2a5 3a3e 4776 d03d c7d8 25bd
000003e0: f59e adbd 19e9 56bc 7804 cf3e 567e e1be
000003f0: e8dd cb3d 756b 873e 3a88 1a3f 3895 ecbe
0.06559179 -0.2288894 -0.22504047 0.043419987 0.068579614 -0.07715922 -0.33661777 -0.62107617
0.0925121 0.1233828 0.15411305 -0.23575723 -0.88754624 0.037224114 0.22050694 0.08933983
0.03667226 0.24578021 0.3018507 0.2589503 0.39243776 0.39021263 0.34253025 0.37737158
0.18618777 -0.076423034 -0.09516486 0.1104443 -0.28559774 -0.20579591 -0.13513546 0.0023606652
0.14728852 -0.43583402 -0.14578806 0.49257866 0.9430447 0.56276387 -0.28930703 -0.13597393
0.53411984 0.74985325 0.5274562 0.046453822 -0.09762301 0.12827168 0.25756386 0.31873462
0.097195685 -0.048493575 0.4728805 0.559857 0.9766037 0.5818094 -0.052754704 0.13386744
0.45308748 0.5648903 -0.5298816 -0.23596556 0.0070548756 0.52449644 0.71466273 -0.50734144
-0.34525576 -0.038555775 -0.15390216 -0.29002595 -0.33799383 -0.23674545 0.047336444 0.067679256
-0.024022462 -0.07953434 -0.05204127 0.0011390172 0.011050375 0.0077281278 -0.04255035 0.013915434
-0.0592185 0.063776635 0.14448445 -0.090154506 -0.02780234 -0.031174341 0.17943598 0.2682238
-0.07100786 0.026370453 0.024337195 0.12579584 0.07299159 -0.050858647 -0.011847465 -0.0037637395
-0.024451673 0.028649863 -0.042804472 -0.00042425882 -0.17852269 -0.40642306 -0.5909467 0.08402241
0.29993182 0.19620453 -0.044522546 0.074696094 0.28204438 0.19139202 0.25974345 0.07908488
0.33560935 -0.18955886 0.11982113 -0.42352703 -0.60759455 -0.25469846 -0.14466254 0.14803496
-0.056765575 -0.021013651 -0.019343935 0.03892288 0.13220711 -0.15698373 -0.14457989 -0.1452319
-0.015709274 0.22258061 0.18855478 0.32610825 0.16848801 0.44226953 0.4836967 0.019090213
0.38070047 0.034243077 0.11028038 0.26922885 -0.03555417 0.06384494 0.19366392 0.33381
0.32300928 -0.054936685 -0.014854125 0.06625182 0.20476449 0.14370045 -0.14226368 -0.007567051
0.03458734 0.044179987 0.19917561 -0.045089316 -0.05471517 -0.09230042 0.13519256 0.23809418
-0.923535 0.22979972 0.15064408 0.37677437 -0.047190033 -0.39609864 0.46665365 0.34211937
0.39473093 -0.3201112 -0.095389396 -0.97700393 -1.833302 -0.028084332 -0.61885846 0.25647208
0.11676415 -0.13337062 -0.29432848 0.04345077 0.20678644 0.13291423 -0.03552511 -0.09555856
0.031206882 0.08784821 0.10711548 -0.6731689 -0.6360353 0.039338075 -0.036473427 0.018866844
-0.3962924 -0.16728099 0.07006468 -0.046874646 -0.23306577 -0.2396771 -0.024044728 -0.110759825
-0.10990823 -0.29153484 -0.11801264 -0.92837167 -0.55034256 0.17223774 -0.09667449 0.093027204
-0.0792059 -0.2240627 0.28329137 0.21607864 -0.506413 -0.23932953 0.2340253 -0.14974892
0.029271973 0.14069082 0.062183876 0.054328293 -0.18804729 0.06223917 0.17294335 0.18891327
-0.015047298 0.1307216 0.0048792316 0.19295025 0.105473846 0.033995736 0.037824046 0.034091998
0.057033014 0.061101545 0.019914899 0.05080158 -0.030074371 -0.15446241 -0.05710318 -0.09400357
-0.07329688 0.026174586 0.039486088 0.07853337 -0.054889016 0.1822727 0.101788096 -0.040489938
-0.08477584 -0.013117098 0.40433097 -0.440417 0.09954435 0.2644917 0.60364115 -0.46207595

encoder1.1.bias f4 [12]
00000000: ae52 973b ce6b 02bc d3da d6ba 17e5 d7b9
00000010: e665 11bc f06b 50bb 339e b5ba 66f1 1d3a
00000020: 1edb f43a 765c d3bb 436c c43c e7d1 303b
0.0046180105 -0.007960273 -0.0016392119 -0.0004117868 -0.008874392 -0.0031802617 -0.0013856351 0.0006025046
0.0018681025 -0.006450231 0.023977404 0.002698058

encoder2.1.weight f4 [16, 12, 5, 5]
00000000: 7d61 b7bc 2fcc e53d 66e6 6a3e b8ec f23d
00000010: 3747 dd3d ac4c 423d f068 5c3c 7a59 543c
00000020: 2199 a2bb cf01 183e 370a 4ebd f3ac 953d
00000030: 85a6 893b 26fd c33d 95a5 523e be96 54bd
00000040: 8553 093e 81c5 b2be e507 67be 2f38 cdbc
00000050: fab7 7bbd 11c6 493e 6466 e4ba 5b6c abbd
00000060: 22c8 b3bd d93e 953e 658f fbba 3ab7 043e
00000070: 21ef f33d 8db9 18bd 357c 533d d59e b3be
00000080: fb2b 01be e6f7 4cbd 2452 193e 4539 56bd
00000090: c02b b5be bb81 263e a959 a5bd cf0f 6f3d
000000a0: a118 193e 4476 98be 422e ca3d 1323 11be
000000b0: c30a af3d e53c 853e 1c01 f43d 3b99 7e3d
000000c0: 8404 5d3e 050b 313e 39db 533e 8b62 253d
000000d0: afd2 66be a32d 053d e565 c43d 54cc 853e
000000e0: 7c04 be3d f901 4e3e ed42 553d 379e 0abf
000000f0: 9658 87be c870 7ebe b7b4 ed3e 6e29 6a3e
00000100: 8b52 5e3e 65e6 22be 4c5a 2e3d d88c dfbd
00000110: f94a 31bf 8450 32be 48e7 523e a9a0 00be
00000120: 499c 0bbf 57db 123e fb59 c03e a32a c8be
00000130: 4c25 b7be 320a e73d 508c 013f fc6e d43e
00000140: 57e5 49be 871d ca3e 391a 963e 6a11 d73e
00000150: fe80 56bd 642d e13e 23b1 65be 4a31 73be
00000160: a352 29bc b853 a8be e3ae 0d3f f39c 923e
00000170: b27c 203e 6179 0cbe 389e d8be d3c4 803d
00000180: 6342 a63e c609 c4bd 42f1 72bf fdb2 85bd
00000190: bbc6 bd3d 5c56 7fbd b676 8f3e 149e ee3e
000001a0: 40cd aa3d 50a3 b23d 6c7e a5be 1d29 b1be
000001b0: 46bc 95bd 34d6 773e bdcc 523e 6c76 d33d
000001c0: 89cf 8fbe f74d f9be 222d 4e3e 58c7 3f3e
000001d0: c0eb 2e3e 6b78 27be 82bf 8dbe fb30 b83d
000001e0: eef1 14be fb44 0cbe 4de8 e43d 5da4 7e3e
000001f0: 223a 14bd 0a56 40be f864 96be 7890 483c
00000200: e373 923d 6d59 883d a51c e83d 0c4d 943e
00000210: 5355 043e f54e 36be 752d 053d f018 eebe
00000220: 87f2 1f3e 681a ee3e a4cc 1c3f 8f82 dcbc
00000230: 65d0 023f 79f5 3e3f 8fdc e4bd e7a3 15bc
00000240: 76f9 34be bd48 6ebd 1c1b 473e fc81 9a3b
00000250: 64b5 fd3d a16c ecbd b648 0a3e 09b3 11be
00000260: 169f 843d e31d 8fbd 60b5 903d ece4 a53d
00000270: b057 4abe 1651 a5bd ac1e e4bd 7359 043e
00000280: e24a a03e da6e eebc 7e79 5ebd 23ea 663d
00000290: 61b2 ae3e 65a3 cf3d e085 4ebe 2d6a b9bd
000002a0: 35b1 06be cf40 c33d 9473 693e 905c 8e3d
000002b0: 705b a63d f85f e03b 856e 2b3e 4ace 203e
000002c0: d2ad 393f 45e5 cebe cb63 56bf 59e1 09be
000002d0: db11 99be 1307 da3e b3b0 473f 15f9 be3d
000002e0: fb7f a8be f612 943e 88f0 9bbe 1595 1ebc
000002f0: 7918 6a3e 0853 173f 73f0 babd 00d2 643d
00000300: 019e 8b3e 1c3b 3f3d 337c 033e 8ce0 07be
00000310: ae64 053f e9fe ae3e 77ec 2f3d 0f4e ccbe
00000320: e276 933d 239d ebbd 7a82 9fbb 3d3e 0a3d
00000330: d3f4 e03c 30ab 8e3e 4147 37bd e8f9 523d
00000340: eaac 143d e022 0ebe 97e4 c73d 6487 4ebd
00000350: eb62 9ebd 4dd8 083d 5244 a2bd 93d1 533e
00000360: 5361 9d3d 78e7 63be 7b5f d3bd c955 26be
00000370: b2da e33d 8929 003e 0f6a efba 313b aabc
00000380: 95cc 87ba c545 a23e 718e 323e 7d60 78be
00000390: 8110 b5be 8b5c 343d d639 febc 9d05 4fbe
000003a0: 178f 7fbe 3398 65be 4173 9cbe 1111 3d3d
000003b0: c389 d0be 4a23 b3bd cf94 74be f683 7bbe
000003c0: aa66 5ebe 965c 05bf f3c8 a13e 3109 9c3e
000003d0: aa17 6abd 72f0 c4bd 9f09 7cbe 374e 27bd
000003e0: 3405 5a3d 1088 103e 35b8 993d dc03 2bbd
000003f0: fe7b cebd c55a e93d 15c6 273e 3128 66bd
-0.022385353 0.112205856 0.22939453 0.11861557 0.10804599 0.0474364 0.013452753 0.012960786
-0.004962102 0.1484444 -0.05030271 0.07308378 0.004200759 0.095697686 0.20570977 -0.05190157
0.13410766 -0.3491631 -0.22561605 -0.025051204 -0.06145475 0.19704463 -0.0017425534 -0.083702765
-0.08778407 0.2914951 -0.0019192515 0.1296052 0.119108446 -0.03728633 0.051632125 -0.35082117
-0.12614433 -0.050041102 0.1497274 -0.05230071 -0.3538494 0.16260426 -0.08073742 0.058364686
0.14950801 -0.2977773 0.09872104 -0.14173536 0.085469745 0.2602302 0.11914274 0.06215785
0.21583754 0.1728936 0.20689096 0.04037718 -0.22541307 0.032514226 0.09589747 0.26132452
0.09278199 0.2011794 0.05206578 -0.54147667 -0.26434773 -0.2484771 0.46426937 0.22867367
0.21711175 -0.15908201 0.042566583 -0.10915536 -0.69255024 -0.17413527 0.2059604 -0.12561287
-0.5453535 0.14341484 0.3756865 -0.3909503 -0.35770643 0.112812415 0.50604725 0.41490924
-0.19716392 0.39475653 0.2931688 0.42005473 -0.05236911 0.43979943 -0.22430854 -0.23749271
-0.010334644 -0.32876372 0.5534498 0.28635368 0.15672567 -0.13718177 -0.4230821 0.06287541
0.32472524 -0.09572177 -0.9489938 -0.0652828 0.092664205 -0.062338218 0.28020257 0.4660498
0.083399296 0.08722556 -0.32323015 -0.3460168 -0.07311301 0.24202806 0.20585914 0.103253216
-0.28088024 -0.48692295 0.20134404 0.18728387 0.17082119 -0.1635453 -0.2768517 0.08993717
-0.14545414 -0.13698189 0.1117712 0.24867387 -0.036188252 -0.18782821 -0.29373908 0.012241475
0.0715101 0.066576816 0.113335885 0.28965032 0.12923174 -0.17803557 0.032514054 -0.465034
0.1561986 0.4650452 0.61249757 -0.026917724 0.51099235 0.7459331 -0.11174881 -0.009133316
-0.17673287 -0.058174837 0.19443935 0.0047152024 0.12388113 -0.11544157 0.135043 -0.14228453
0.06475656 -0.06988122 0.070658445 0.08100304 -0.19760013 -0.080721065 -0.11138663 0.12924747
0.3130713 -0.029105593 -0.054315083 0.056375634 0.34120467 0.10138587 -0.20168257 -0.090534545
-0.13153537 0.09533846 0.22797996 0.06951249 0.08122909 0.006847378 0.16741379 0.15703693
0.72530854 -0.40409294 -0.8374602 -0.1346487 -0.29896435 0.42583522 0.78003997 0.093248524
-0.3291014 0.28920716 -0.30456948 -0.009679099 0.22860898 0.5911107 -0.09127893 0.055864334
0.27268985 0.04668723 0.12840347 -0.13269252 0.5210675 0.34178856 0.04295012 -0.39903304
0.072004095 -0.11504581 -0.004867849 0.03375076 0.027460491 0.2786498 -0.044745687 0.05150786
0.036297716 -0.13880491 0.09760397 -0.050422087 -0.07733711 0.033409405 -0.07923187 0.20685415
0.07684579 -0.22256267 -0.10320946 -0.16243662 0.11125697 0.12515844 -0.0018265861 -0.020780178
-0.0010360653 0.31693855 0.1743715 -0.24255557 -0.35364154 0.04403357 -0.031033438 -0.20216985
-0.24956928 -0.2242134 -0.30556682 0.046158854 -0.40730104 -0.08746965 -0.23884891 -0.24562058
-0.2171885 -0.520944 0.31598625 0.30475762 -0.057151474 -0.09616174 -0.24613045 -0.040846076
0.05322762 0.14114404 0.07505838 -0.041751727 -0.100822434 0.11394266 0.16384156 -0.056190673

encoder2.1.bias f4 [16]
00000000: b7bf 99bc ed5d 973c 1919 8fbd af8d 27bd
00000010: 74b7 bf3a fe0a 62bc e8a8 0fbb cf73 ac3b
00000020: c30c e2bb 8fdf f8ba 67ac 793c 7ea2 463c
00000030: cf09 10ba 6f29 14bd 436e 23bd 7345 7bbb
-0.018768175 0.018477404 -0.06987209 -0.040906604 0.0014626817 -0.013796566 -0.0021920744 0.005262829
-0.006898494 -0.0018987524 0.015238858 0.012123702 -0.00054946257 -0.036172327 -0.039900076 -0.0038340956

decoder2.0.weight f4 [16, 12, 5, 5]
00000000: 1c81 95be ad17 fcbc b7d0 533d ee33 883c
00000010: de4e 63be 9ad5 c8bd 9a9f 883d 69d7 f83d
00000020: 4a68 07be 00e4 8dbe 812c ea3d 89b2 413e
00000030: 0eae 613e fe9f f63d f442 67bd 3543 6bbc
00000040: 05aa c8bd ace3 9ebb 6627 ba3c 4929 55bc
00000050: f00c c93d 96ea 74bc 1f62 0abe e9e6 893b
00000060: c7e8 c6be 0047 c8bc a708 04be 292c fb3c
00000070: 44e7 f8bd d084 7bbc 68ce a0bd 2681 7cbe
00000080: 7f6d 8abe 3529 703d 6eb6 78bd 683a 99be
00000090: 1510 d7bd 69ea 8abe 06bc 58be 5d93 8dbd
000000a0: d9ea 19be 5a99 04be 3ba6 1fbe 7c65 2b3d
000000b0: a617 1ebe 3d50 583d dfb7 c9bd e039 90be
000000c0: ab02 343c aea1 8e3d 205c 11bc 8149 823d
000000d0: 83b8 01be 9217 b8bc 801a e5bd 1f18 043d
000000e0: d70a 983d 372b 29bb 80a2 093d bac6 993d
000000f0: 1798 11be 5fe7 bbbc a80e f5bd 5383 40be
00000100: 3dff 6dbd 4430 09be 2563 a43d e3e6 05bd
00000110: e8e0 edbd d9ba cebd 681a 663c 1ade 8bbc
00000120: 38b4 c0bd c087 e1bd fa20 053d a310 b2bc
00000130: 2d32 433d 0843 853c d241 cfbd 0806 413d
00000140: 73ba 71bc 4018 eb3d ca1c 4d3d fa99 09bd
00000150: 1067 51bd e31b 393d 4bfb a13c db68 3d3e
00000160: d396 c9bd 3e03 e43d c693 8c3d 0c2f b53d
00000170: 6adb ad3d 0597 86bd 300e 1b3d c288 a2bd
00000180: 8cf6 b53d b4fa 0a3d 5536 d7bd f130 013d
00000190: fd24 da3d c936 263d 6c11 023d 0568 5abe
000001a0: 649f 813e 1647 80bd 3de6 163b f007 7fbc
000001b0: ba3f ecbc 03f9 063e c561 56bc 6581 9e3d
000001c0: 17ac 2b3e 297c 523b bbe3 753e cab2 cfbd
000001d0: fb25 0ebc 3f9c ec3d 2255 53be be3e 753d
000001e0: 83e4 47bd 3714 853d 77a7 7d3e 1519 34be
000001f0: cc28 4d3e 669b b93c 20f4 0a3d 857f 5bbd
00000200: b1da fabc 3408 77bd ae02 9fbc 0567 113d
00000210: 9322 9f3d ea61 3c3e bb82 9b3c 798d 883d
00000220: c75d e23d 9960 bb3e f793 2c3e 7afa 91bd
00000230: fad4 f23c c66b 8cbd 0223 3f3e 6746 c13d
00000240: 0b8e 0dbe ef37 d5bb 0848 223d a0f0 313d
00000250: 4bc7 d4bb 3767 a0bd 722a 3dbe 44ad a63c
00000260: fc5c 97bd 2802 a1bc 1177 d7bd cbb8 0cbd
00000270: 7344 83bc db89 8e3d 457e 463b 8947 0fbe
00000280: 2fd4 b33c 8960 c7bc 0297 db3d 98ea 9b3d
00000290: aec1 243d a76d b7bc f3b4 0ebc fd02 23bd
000002a0: 1dc2 76bd 1216 f13d 7d24 4abe 552c 3a3d
000002b0: c5cc 153e 4a9b 07be e617 fdbd 0ba4 05be
000002c0: 4c02 8bbc 9171 19be 0914 49bd 1b9e e3bd
000002d0: a01f e03c 5a30 eabc 7083 723d 1f18 81bd
000002e0: 0dec f5bc cc11 0ebe cb1e 2bbd 329a 42bc
000002f0: 3129 10be 1de5 efbd 56be 8bbd 7b93 c93c
00000300: 9532 3fbd 2baa 28be c939 fbbc b96d d0bd
00000310: a1c9 80bd 27dc 36bd 874e 2abe 67de e2bd
00000320: 8aaa d43c 7d44 dd3d e353 9fbd d9a8 adbe
00000330: 8766 32be be19 45be d3ab 843d e104 663b
00000340: 5dbd c43c 98ac c73d 1f53 2bbe ee93 0e3e
00000350: 8d6e ad3b 8616 47be da63 87bd 5748 c5be
00000360: 46cb 9bbd 3ac5 cebd 98a3 6abe 42e2 2bbd
00000370: 06c0 5ebe fc3e c53c ff36 fbbd 3cf2 a5be
00000380: 8ec9 73be 90c6 81be 65c5 d2bb 92e3 51be
00000390: 8fbd 95be eaf7 9dbe 643f 59be 17e1 bb3c
000003a0: 453c 0fbe 0975 05be bf74 243d 798e 0ebe
000003b0: 9b40 7f3e 0936 ca3d e79d 34bd b408 10bb
000003c0: a68b 84be b418 663e 7718 2f3d 2c18 99bd
000003d0: 5947 18be c1b0 b7be 6d3b ff3d a3b5 dc3d
000003e0: b095 a6bd 63dc cdbe 440b f1bd 3ba8 ca3d
000003f0: ce27 9dbd 14ae b0bc 4249 95be 15d2 be3d
-0.29200065 -0.030773008 0.051712718 0.016626325 -0.22198054 -0.09806366 0.066710666 0.12150461
-0.13223377 -0.27713013 0.1143427 0.18915762 0.22039053 0.12042235 -0.056460336 -0.014359285
-0.09798054 -0.004848918 0.022723865 -0.013010331 0.09816921 -0.014948508 -0.13513993 0.004208435
-0.3884947 -0.024447918 -0.12893926 0.030660706 -0.121534854 -0.015351489 -0.07851869 -0.24658641
-0.27036664 0.058633048 -0.060720854 -0.29927373 -0.10501114 -0.27131966 -0.21165475 -0.06912873
-0.15030994 -0.12949124 -0.15590756 0.04184483 -0.15438709 0.052810896 -0.09849524 -0.28169155
0.010986964 0.06964432 -0.008872062 0.06361676 -0.12668042 -0.022472177 -0.11186695 0.032249566
0.074239425 -0.0025813112 0.033602238 0.07508607 -0.14218174 -0.022937475 -0.11965686 -0.18800096
-0.058104742 -0.13397318 0.08026723 -0.032690894 -0.11615163 -0.10094232 0.014044382 -0.01707368
-0.09409374 -0.110122204 0.032502152 -0.021736449 0.047655273 0.016267315 -0.10119976 0.047124892
-0.014753926 0.11479235 0.050076284 -0.03359411 -0.05112368 0.04519261 0.019773146 0.1849703
-0.098432206 0.11133431 0.06864123 0.08846864 0.084891155 -0.065717734 0.037855327 -0.07936241
0.08884916 0.033930495 -0.1050841 0.031540815 0.10651586 0.04057959 0.031754896 -0.21328743
0.25316918 -0.062635586 0.0023025416 -0.015565857 -0.028838981 0.13180928 -0.0130848335 0.07739524
0.16764866 0.0032117462 0.24012654 -0.10141523 -0.008676047 0.11553239 -0.20637944 0.05987429
-0.04880191 0.06497996 0.24770914 -0.17587693 0.20035094 0.022657108 0.033924222 -0.05358841
-0.030621858 -0.060310557 -0.019410457 0.035498638 0.077702664 0.18396726 0.018983236 0.06667609
0.11053043 0.36597136 0.16853319 -0.07127853 0.02964257 -0.06856494 0.18665698 0.09437256
-0.13823716 -0.006506912 0.039619476 0.04344237 -0.006493484 -0.07832187 -0.18473223 0.020346291
-0.07390782 -0.019654348 -0.10520757 -0.03435592 -0.01602385 0.069598876 0.0030287665 -0.13992132
0.021951763 -0.024338024 0.10722162 0.076131046 0.04022377 -0.022391153 -0.008710134 -0.03979777
-0.060243715 0.11771788 -0.19740482 0.045452435 0.14628895 -0.13242832 -0.12358074 -0.13050859
-0.016968869 -0.14984728 -0.049091373 -0.111141406 0.02735883 -0.028587509 0.05920738 -0.06303429
-0.030019784 -0.13873976 -0.041777413 -0.011877583 -0.14078213 -0.11713622 -0.06823413 0.024606457
-0.0466791 -0.16471164 -0.030667203 -0.10177178 -0.06288458 -0.044643547 -0.16631518 -0.11077576
0.025960226 0.10804079 -0.07779672 -0.33917883 -0.17421924 -0.19248101 0.06478085 0.0035098123
0.024016077 0.097497165 -0.16730927 0.13923618 0.0052927197 -0.19442186 -0.06610842 -0.38531753
-0.07607131 -0.10096212 -0.22913969 -0.041963823 -0.21752939 0.024077885 -0.12266349 -0.32411373
-0.23807356 -0.25346804 -0.0064322227 -0.20496967 -0.29246184 -0.30853206 -0.21215588 0.02293448
-0.13987835 -0.13032927 0.0401504 -0.13921537 0.24926989 0.09873588 -0.0440959 -0.0021977844
-0.25887793 0.22470361 0.04274794 -0.074753135 -0.14870967 -0.3587704 0.124625064 0.10776832
-0.081340194 -0.40207204 -0.11769727 0.09895369 -0.07673608 -0.021567382 -0.29157454 0.09317414

decoder2.0.bias f4 [12]
00000000: 3342 823d 01ae 2c3e ac4d c53d 04d5 7b3c
00000010: 37e4 c63d 870c 363d 1d43 5abe bb06 873d
00000020: 03a5 4fbd cd37 9abe 9105 f2bc 7787 a3be
0.06360283 0.16863252 0.09633955 0.015370611 0.09711497 0.04444554 -0.21314664 0.065930806
-0.050694477 -0.30120698 -0.02954367 -0.3193929

decoder1.0.weight f4 [12, 6, 5, 5]
00000000: 3dcf 8a3c e38f 9b3b 2503 a0bb e1f2 db3b
00000010: e5d9 bb39 687b 343c adce 87bc 92b6 593c
00000020: 605d e0bc 4eed a53c fd42 86b9 c55a b0bb
00000030: 14fb 96bb b2ca 783c ee3e 24bb b606 1c3b
00000040: aa64 19bd 343c 18bc 605f f3bc 3e9a 4dbb
00000050: eff0 6f3c d304 a0bb cc2f 86bb 616c ad3b
00000060: 0abe 9c3b 9baf 083e 9973 e23d 8def 423e
00000070: e697 af3d 0696 9d3d 62da b43d b051 7c39
00000080: 92c2 d03c 8474 9e3d c67a e33d f93e dc3d
00000090: 1978 6b3d 0d99 1c3e c1d3 af3d dc1b 9b3e
000000a0: 3a14 873d c01b c5bd 75d9 eebd 5fe6 643d
000000b0: 148a c73d 9bc9 a53d 3037 1a3d 6880 c03c
000000c0: bd99 4f3d bc7a e83d 576d 8a3c 97f2 0cbb
000000d0: 1b7c d33c 3d0a a23b 3ba4 9e3c b5a9 2d3c
000000e0: 80d0 3f3c fd1a 613c 9eb7 e53c 3628 803a
000000f0: b2f3 793a 9647 28bc 9acd 143d ae62 24bc
00000100: 39bd 6c3c 4188 ae39 13a5 1f3c 12cb a23c
00000110: 64f2 b33c 0f5f f13b 5b20 323c 0d97 34ba
00000120: 0651 c03c 38d3 e93b 4fcf 963c cb61 b73e
00000130: 067f ac3e 443a 563f 1523 c33c eb30 da3e
00000140: 2dc8 9a3b c417 6b3f 6a2c 843c f825 d63e
00000150: decf b53e 1e28 f23e 3a7d 853e d6be 073f
00000160: a8a1 59be cf56 193f 6b1b a13e d206 893f
00000170: 76e1 a73d 0a55 e63e 65f3 013f 09a0 d73e
00000180: 73fe d53e b4ba 813e d820 873d 29bb c63e
00000190: cc36 0dbe 4663 9bbd 2a54 cebd 179c 0bbe
000001a0: fe2b 853e ab9e a33e da0f 59be fa56 5e3f
000001b0: 1009 1abe 11ff d53e aa68 d7bd c03c 4b3f
000001c0: 0b0b bd3e dd76 793d 76fd 83bd 62b0 963e
000001d0: 2472 e1bd f42c 953f d087 8cbd fa00 983d
000001e0: d64e 6e3d 4aa4 8f3e 1b16 1b3e 0395 5ebb
000001f0: 3d5b cc3d a02e 0abe de14 86be 4ef9 23be
00000200: f89e b4be 3d81 80be 318d 3cbe d3c1 08bd
00000210: 812d 81be fd58 f2bd 18cd 9ebe e990 0ebe
00000220: a2a7 c8be 0551 4dbe ffde 8ebe 8af4 21be
00000230: 9f3f 04be 1566 bbbe cd7b cbbe c764 0fbe
00000240: 589d 98be 518b ea3c 6f57 6ebe 8191 63bd
00000250: 43a7 13be 116c 89bd fe6d 06bc 378a e33c
00000260: 028d 99bc c4d8 853c fca0 53bc ac7f c23c
00000270: 28b7 6bbc a016 ee3c b018 35bc e4d5 a73c
00000280: c882 7fba 25cd dc3c e43c d1bc bd0b 233c
00000290: 1999 17bc 3f0e 363c 0e2e 14bd db3c f13c
000002a0: 84b9 15bd c0c8 ff3c 0db1 c5bb 62bc f93c
000002b0: 90b1 523c bcff 893c bd03 f23b 27da fc3d
000002c0: 0687 38bc a7ba 1a3e 7f74 bb3d e78d 153e
000002d0: bb50 edbc 5170 623e b137 753d 2ff6 7b3e
000002e0: e004 a73d 1681 d93d 5b7c 05bc ae31 403e
000002f0: ee1f 623d cc40 d23d de2c 053d f54b 1c3e
00000300: 56ec 173e b105 8e3e 8e50 2abd b8e0 3d3d
00000310: 6223 4fbb 7c47 273e 2d7d 6f3e 004e 87bc
00000320: 5b2f babc e42f 86bc dc2d 59bc 41d2 04bd
00000330: 0280 abbc 147f 91bc c48b b63b 64a7 03bd
00000340: 5b38 eb3b cef2 d1bc 5637 eabc d7c0 10bd
00000350: b708 eabc db02 37bd bd86 a7bc a59f edbc
00000360: 4127 003d ba6a 26bd 64df 6d3b f5f1 a9bc
00000370: fef0 0fbd dba3 8bbc 9005 96bc 30a0 2bbd
00000380: 8688 d0bc 6f94 013d 107a 9e3d db89 663e
00000390: 77ad b63d 6b96 5cbc ce08 55be b917 163f
000003a0: a35f 993e c173 053f eff4 8fbe 4b9e 073d
000003b0: 311c 623e d4ab 64bb 8fc1 893e 8bd1 8fbc
000003c0: 6c64 73be a863 ee3e 0efd c43e aed7 ea3e
000003d0: 26e2 8bbe 32be 3ebe 4cc2 a9be 1855 113e
000003e0: 2d4e f4bd 6405 31be 0d96 b2be 70b4 c1bf
000003f0: a726 27bf 5bef b6bf 26ad 32bf c2fb e5bf
0.016944522 0.0047473772 -0.0048831874 0.006712303 0.00035829764 0.0110157505 -0.016578043 0.013288157
-0.027388275 0.020254757 -0.00025608382 -0.0053819143 -0.0046075676 0.015185045 -0.0025061923 0.002380771
-0.037449516 -0.009291697 -0.029708564 -0.0031372453 0.014644845 -0.0048833876 -0.0040950533 0.005292461
0.0047833966 0.13348238 0.11057205 0.19036694 0.08573894 0.0769463 0.08830716 0.00024063024
0.025483403 0.07737067 0.111074015 0.107541986 0.05748758 0.15292759 0.08585311 0.30294693
0.06595655 -0.096244335 -0.116625704 0.05588376 0.09743133 0.08095094 0.037650287 0.023498729
0.050683726 0.11351535 0.01689784 -0.00215069 0.025816014 0.004945068 0.01936542 0.010599543
0.011707425 0.013739345 0.028041657 0.0009777609 0.00095349096 -0.010270974 0.03632889 -0.010033293
0.014449411 0.00033289383 0.009743947 0.019872222 0.021966167 0.007366068 0.010871972 -0.00068889634
0.023476135 0.007135775 0.0184094 0.35816798 0.3369066 0.83682656 0.02382044 0.42615446
0.00472357 0.9183314 0.01613446 0.41825843 0.35510153 0.47296232 0.26072103 0.5302557
-0.21253073 0.59898084 0.3146623 1.0705206 0.081973 0.44986755 0.50762016 0.42114285
0.41795692 0.25337756 0.06598061 0.38814667 -0.13790435 -0.07587294 -0.10074647 -0.13633762
0.26010126 0.31956992 -0.21197453 0.86851466 -0.1504252 0.41796163 -0.1051801 0.7938957
0.36922488 0.060904372 -0.06444828 0.29431444 -0.11008099 1.1654344 -0.06861842 0.07422061
0.058180653 0.2805503 0.15145151 -0.003396333 0.0997834 -0.13494349 -0.26187795 -0.16013071
-0.35277534 -0.250986 -0.18413235 -0.03338797 -0.2523003 -0.118333794 -0.3101585 -0.13922466
-0.39190394 -0.20050438 -0.27904508 -0.1581594 -0.12914895 -0.3660132 -0.3974289 -0.14003287
-0.29807544 0.028630884 -0.23275541 -0.055558685 -0.14419274 -0.06710065 -0.008204935 0.027775867
-0.018743996 0.016338713 -0.0129168 0.02374252 -0.01438693 0.029063523 -0.011053249 0.020487733
-0.0009746966 0.02695329 -0.02554173 0.009951529 -0.00925281 0.011111795 -0.036176734 0.029447963
-0.036553875 0.031223655 -0.006033069 0.030485336 0.012859717 0.016845576 0.0073856995 0.12346297
-0.011262661 0.15110265 0.09153079 0.14604913 -0.02896916 0.22113158 0.059867565 0.2460563
0.08155227 0.10620324 -0.008147324 0.18768951 0.05520623 0.10266265 0.03251349 0.1526335
0.14836249 0.27738717 -0.04158073 0.046356887 -0.0031606783 0.16335863 0.23387595 -0.016516685
-0.022727659 -0.016380258 -0.013255563 -0.032427076 -0.020935062 -0.01776079 0.0055708606 -0.032142058
0.007178349 -0.025628474 -0.02859084 -0.035340156 -0.028568609 -0.044680458 -0.02044999 -0.029006789
0.031287435 -0.040629126 0.0036296481 -0.020745257 -0.035141937 -0.017045906 -0.0183132 -0.041900814
-0.025455724 0.031635698 0.07738125 0.22513525 0.089198045 -0.013463597 -0.2080414 0.5862995
0.29955778 0.5212975 -0.28116557 0.033109944 0.22081067 -0.0034892457 0.26905486 -0.017555973
-0.23768777 0.46560407 0.38474315 0.45867676 -0.27320975 -0.18627241 -0.3315605 0.14192617
-0.11928973 -0.17287213 -0.34880105 -1.513319 -0.65293354 -1.4291795 -0.69795454 -1.7967455

decoder1.0.bias f4 [6]
00000000: 2e53 f9bd aa9d 65bd 9338 3c3e 52c3 24bd
00000010: 15a7 b7bb 79a0 37bb
-0.121740684 -0.056058563 0.18380956 -0.040225334 -0.0056046345 -0.0028019233
